best_graphsage_model.pth (torch, 76426 bytes, 6 tensors)

conv1.lin_l.weight f4 [64, 14]
-0.07090817 -0.15367778 -0.22331114 0.06041242 -0.1313758 -0.24946013 -0.025453387 -0.025001368
-0.104480274 -0.011257291 0.14135441 0.2299307 -0.18997347 -0.14813772 -0.04938629 0.0070989495
0.07628043 -0.37767947 -0.13635617 0.067652434 0.043823242 -0.30440107 -0.3208735 0.12266773
0.043299645 0.08620748 0.20209986 -0.182017 -0.07645945 0.0044575036 -0.112558216 -0.25345865
-0.15838557 0.2670376 0.21797311 -0.15390602 -0.10961902 -0.041163474 0.083928496 0.18291074
-0.16366598 0.20052609 -0.22437362 -0.004975918 -0.18463124 -0.28974372 -0.16282165 -0.35095847
-0.030673768 -0.22143736 -0.071614 -0.2780959 -0.18224394 0.11676684 -0.031114146 -0.21308923
-0.029290296 0.14463003 -0.17735687 -0.20332955 -0.024024239 -0.15790926 -0.06901173 -0.038431738
-0.13312687 0.08022493 0.0642429 0.21697211 0.18820307 -0.24911807 -0.3804643 -0.094059005
-0.1588711 0.016367724 -0.17643651 -0.14526254 -0.17572974 -0.3145388 -0.18533611 0.15089968
0.16763279 0.15641847 -0.010671705 0.028686762 -0.1912402 -0.08095733 -0.33050013 -0.018421078
-0.18140803 -0.15642811 -0.10913295 -0.18314654 -0.19557154 -0.13802055 -0.010360539 0.06361756
-0.08457239 -0.22706708 -0.018935949 -0.23665273 -0.14743276 -0.024224717 -0.32874772 0.056828655
0.10801748 -0.17123018 -0.1341398 -0.054438163 -0.12869304 -0.107784495 0.26053926 -0.16647846
-0.14395443 -0.28018475 -0.0180792 0.09504504 0.13809241 -0.08379334 -0.27326632 -0.14555712
-0.023354763 0.015418888 0.111508906 -0.16163877 -0.21251087 -0.12981962 -0.25337648 -0.35284922
-0.2810828 0.13345864 -0.3171527 -0.034072354 0.14380969 -0.1758319 -0.014846059 0.17328328
-0.052398905 0.029746324 0.25203255 -0.018092737 -0.0016585728 0.022518665 -0.12662718 0.02690399
-0.025261372 -0.0045768186 -0.21315153 -0.28370047 -0.40001348 0.030919032 0.09161264 -0.13951038
-0.0573785 -0.067140535 0.00913797 -0.014886916 -0.33155397 0.05037534 -0.019292954 -0.31884912
-0.12693277 0.027672496 -0.2495304 0.03959431 0.12780592 -0.24886042 0.12950477 -0.0068552196
0.073538125 0.142551 -0.04381381 -0.047125716 -0.21323088 0.115578175 -0.21449779 -0.2421379
-0.09818049 0.028203815 -0.070415676 -0.015351862 -0.022988692 0.09498808 0.09008999 -0.31283766
-0.046467543 0.05599502 -0.12876067 0.054168303 -0.024358852 -0.24117947 -0.060321566 -0.13808325
-0.19103584 -0.21948293 0.14592597 -0.17269489 0.03789471 -0.14467463 -0.25460738 -0.16917093
-0.07153766 -0.020264214 -0.056733135 0.034773607 -0.2698986 -0.044127323 0.15251535 0.022740424
0.21226984 -0.152962 0.03307365 -0.180372 -0.21316426 0.06391817 -0.060663864 0.056259718
-0.2619466 -0.0022444676 -0.061461166 -0.18304284 -0.22723195 0.028799295 -0.18413803 0.14431733
-0.06494079 -0.08534249 -0.06662463 -0.17309548 -0.018178603 -0.15361352 -0.020169267 -0.047270656
-0.057471205 -0.016834082 -0.045953393 -0.112587675 -0.24299307 0.1706352 0.1572696 0.15067224
-0.2927139 -0.044612538 -0.012353602 -0.30847657 -0.31117505 -0.088849194 -0.064371556 -0.05201444
-0.09841229 -0.22545643 0.17912823 0.06284836 0.14925599 -0.2956402 -0.1429527 -0.23402183
00000000: 4d38 91bd b55d 1dbe adab 64be 0473 773d
00000010: 6187 06be 7a72 7fbe 9f83 d0bc abcf ccbc
00000020: c1f9 d5bd 8070 38bc 36bf 103e f472 6b3e
00000030: 6888 42be 6ab1 17be 4749 4abd 4e9e e83b
00000040: ea38 9c3d 345f c1be f4a0 0bbe 5c8d 8a3d
00000050: 0080 333d 75da 9bbe 8849 a4be 3839 fb3d
00000060: f85a 313d 8c8d b03d 44f3 4e3e aa62 3abe
00000070: c696 9cbd 4010 923b ec84 e6bd 55c5 81be
00000080: d42f 22be 27b9 883e 5834 5f3e 8a99 1dbe
00000090: f07f e0bd 089b 28bd b4e2 ab3d f44c 3b3e
000000a0: 0e98 27be b656 4d3e 33c2 65be 070d a3bb
000000b0: f90f 3dbe 4a59 94be b8ba 26be d4b0 b3be
000000c0: 8e47 fbbc 7ac0 62be 5caa 92bd 9662 8ebe
000000d0: 289e 3abe 7423 ef3d 18e3 febc 1034 5abe
000000e0: 34f2 efbc e519 143e 0a9d 35be 9f35 50be
000000f0: 7bce c4bc f7b2 21be 0656 8dbd 996a 1dbd
00000100: 6952 08be f84c a43d c891 833d f02d 5e3e
00000110: 4eb8 403e cf18 7fbe 37cc c2be 02a2 c0bd
00000120: 1baf 22be 9b15 863c c6ab 34be b4bf 14be
00000130: 7ff2 33be 3b0b a1be c0c8 3dbe 7285 1a3e
00000140: eea7 2b3e 2a2c 203e 60d8 2ebc 8000 eb3c
00000150: 79d4 43be f5cc a5bd 5037 a9be cde7 96bc
00000160: 07c3 39be b12e 20be 1981 dfbd c48a 3bbe
00000170: e843 48be 4255 0dbe 40bf 29bc ec49 823d
00000180: 4a34 adbd 4684 68be 901f 9bbc 1855 72be
00000190: 9df8 16be ea72 c6bc 9f51 a8be 2ac5 683d
000001a0: 4538 dd3d f756 2fbe f25b 09be 8dfa 5ebd
000001b0: 1cc8 03be 1ebe dcbd 6765 853e 5479 2abe
000001c0: ca68 13be 6074 8fbe d51a 94bc f9a6 c23d
000001d0: 1968 0d3e d89b abbd 90e9 8bbe ed0c 15be
000001e0: 7d52 bfbc 819f 7c3c c85e e43d a284 25be
000001f0: 739c 59be 6fef 04be 90ba 81be a7a8 b4be
00000200: 16ea 8fbe 62a9 083e d761 a2be 748f 0bbd
00000210: d942 133e 470d 34be e23c 73bc 2c71 313e
00000220: 3ca0 56bd 90ae f33c 690a 813e 3837 94bc
00000230: 7864 d9ba 1079 b83c 8eaa 01be c265 dc3c
00000240: f0f0 cebc 23f9 95bb 6544 5abe 3041 91be
00000250: 91ce ccbe e949 fd3c 689f bb3d cfdb 0ebe
00000260: b805 6bbd fa80 89bd 6db7 153c 40e8 73bc
00000270: 71c1 a9be 5f56 4e3d 420c 9ebc 3140 a3be
00000280: aafa 01be 6eb1 e23c e684 7fbe a52d 223d
00000290: 8edf 023e 44d5 7ebe e69c 043e c0a1 e0bb
000002a0: 289b 963d e4f8 113e 1c76 33bd e506 41bd
000002b0: 3259 5abe 40b4 ec3d 4fa5 5bbe fff2 77be
000002c0: da12 c9bd b00b e73c 1836 90bd 6086 7bbc
000002d0: c852 bcbc 1c89 c23d 1a81 b83d 422c a0be
000002e0: c054 3ebd 095b 653d d6d9 03be 95df 5d3d
000002f0: 378c c7bc c0f7 76be bf13 77bd b265 0dbe
00000300: e69e 43be 22c0 60be 9e6d 153e eed6 30be
00000310: 7c37 1b3d 9625 14be e65b 82be 253b 2dbe
00000320: 5682 92bd 2301 a6bc 0161 68bd c56e 0e3d
00000330: 2630 8abe dabe 34bd fc2c 1c3e 204a ba3c
00000340: 445d 593e 12a2 1cbe 3c78 073d 70b3 38be
00000350: bb47 5abe 88e7 823d ac7a 78bd 9770 663d
00000360: dd1d 86be eb17 13bb b4be 7bbd 956f 3bbe
00000370: 7eaf 68be 80ec eb3c ae8e 3cbe ecc7 133e
00000380: adff 84bd 0bc8 aebd 7e72 88bd f13f 31be
00000390: 4beb 94bc dd4c 1dbe 053a a5bc e09e 41bd
000003a0: ed66 6bbd a1e7 89bc a039 3cbd 5e94 e6bd
000003b0: 2dd3 78be feba 2e3e 480b 213e d349 1a3e
000003c0: 99de 95be a3bb 36bd c366 4abc a4f0 9dbe
000003d0: 5652 9fbe 91f6 b5bd 3cd5 83bd 180d 55bd
000003e0: 628c c9bd 0dde 66be 646d 373e a4b6 803d
000003f0: 90d6 183e 275e 97be 3162 12be 6ba3 6fbe

conv1.lin_l.bias f4 [64]
-0.18965977 -0.18623345 -0.29312226 0.08791533 -0.2310367 -0.0065736 0.093962826 -0.0032704715
-0.16882768 -0.052462474 0.0515664 0.0056959493 -0.32543677 -0.18272898 -0.023438437 -0.023606429
0.05483498 -0.24498583 -0.31417838 -0.06056175 -0.00015172972 0.034414046 -0.3797302 -0.2714112
-0.3564495 0.13186592 -0.16254763 -0.043982968 -0.20761386 -0.035643544 0.050567284 -0.020518959
-0.26417983 0.054848585 -0.08633265 -0.35954735 -0.25202757 0.014788082 -0.37096003 0.11861203
-0.21162987 -0.025470736 -0.17141959 -0.23448297 -0.23145075 -0.087530725 -0.37177026 -0.13419053
-0.0026851029 -0.1265538 -0.050598882 0.12986538 0.018299986 0.02876303 -0.33307624 -0.12834823
-0.040297113 -0.22215109 0.09596884 0.055370986 0.06652861 -0.043847453 -0.16574809 -0.23341653
00000000: 2c36 42be fbb3 3ebe 1f14 96be f40c b43d
00000010: e294 6cbe 5b67 d7bb 956f c03d 6855 56bb
00000020: 2ae1 2cbe e4e2 56bd 4a37 533d 16a5 ba3b
00000030: a69f a6be 4e1d 3bbe f701 c0bc 4562 c1bc
00000040: a59a 603d 91dd 7abe fddb a0be 990f 78bd
00000050: a319 1fb9 bef5 0c3d ff6b c2be 69f6 8abe
00000060: 8d80 b6be dc07 073e e372 26be 7c27 34bd
00000070: ba98 54be f7fe 11bd a41f 4f3d 6017 a8bc
00000080: 9442 87be e9a8 603d 2ccf b0bd 9716 b8be
00000090: c209 81be b649 723c 79ee bdbe ddea f23d
000000a0: 80b5 58be 01a8 d0bc 9e88 2fbe 4e1c 70be
000000b0: 6d01 6dbe 4f43 b3bd ac58 bebe 3e69 09be
000000c0: 8df8 2fbb 5297 01be c640 4fbd 6efb 043e
000000d0: dae9 953c 72a0 eb3c f888 aabe b86d 03be
000000e0: 960e 25bd 937b 63be 508b c43d b0cc 623d
000000f0: 2740 883d 6399 33bd deb9 29be be04 6fbe

conv1.lin_r.weight f4 [64, 14]
0.09609427 0.12701657 0.013153324 -0.07875959 -0.1821984 -0.07798631 -0.03434642 0.06347154
-0.010188124 -0.06329714 -0.17000218 0.088598564 -0.04308778 0.15166055 -0.09933514 -0.044584807
0.0402745 -0.18012697 0.13097775 -0.21722648 -0.11475037 0.03699308 -0.17371044 -0.24129736
0.07693876 0.058980286 -0.10068324 0.13961297 -0.118416026 0.08061078 0.14234658 -0.11561005
-0.23528779 0.07960267 0.0064154565 0.08750387 -0.2016979 -0.11672151 0.10790053 -0.11925404
-0.12892923 -0.11978349 -0.12354433 -0.035279572 -0.120858125 -0.17575744 0.004596738 0.046489324
0.0058733006 -0.095245294 -0.21418072 -0.18981753 -0.21682297 -0.15076487 0.0074245664 -0.2257786
-0.11106754 -0.13298593 -0.016770517 -0.24310866 -0.21499892 -0.26408842 -0.12427756 0.024103884
0.07476267 0.022039434 -0.121133804 -0.23041809 -0.058725834 0.0055493116 -0.05981018 -0.32216156
0.003402086 -0.23567505 -0.01143807 -0.24887714 -0.16474195 -0.14182483 -0.03507809 0.090985514
-0.0888778 -0.21461117 -0.044047836 -0.06586689 -0.21512572 0.043157842 -0.031321198 -0.18241854
-0.31836835 -0.059267085 -0.031619646 -0.10356085 -0.09173504 -0.19926433 -0.22756548 -0.08059521
-0.1250495 -0.1330854 -0.21595539 0.027073933 -0.0923303 -0.11949058 -0.054869667 -0.25044027
-0.037225578 -0.18537745 -0.05575989 -0.14788517 -0.051537767 -0.06926095 -0.079429716 -0.19516854
-0.019227058 -0.014032807 -0.24219272 -0.16361324 -0.15850532 -0.032575533 -0.014831837 -0.12396291
0.033328608 -0.22941309 0.122826196 -0.017390668 -0.058229327 -0.17110184 -0.20841706 -0.31825098
-0.3047174 -0.2983137 -0.083558224 0.009715706 -0.14230539 -0.092135474 -0.23859958 -0.06635226
-0.17247595 -0.18611261 -0.2187251 -0.0034184693 -0.27881998 -0.029660463 -0.026653778 0.007481791
-0.055614967 0.00090723136 -0.11621917 -0.04514752 -0.10921902 -0.34811807 0.005367971 0.004790541
-0.26077312 -0.17651775 -0.17323723 -0.25397608 -0.1748072 0.0025722303 -0.014738603 -0.0031729569
-0.11413249 -0.070455104 -0.03301157 -0.2415934 -0.16107112 -0.058611184 -0.23186004 -0.04387372
-0.15144773 0.014559095 0.029150099 -0.04638534 -0.17843314 0.013205111 -0.12958309 -0.00609982
-0.06880606 0.040024016 -0.15156096 -0.078807354 0.06436962 -0.12053506 0.07973758 0.063088365
0.10054763 -0.14361659 0.04115735 0.056226257 -0.07338528 0.06990294 0.055757355 -0.20592467
0.038469493 0.17312856 0.10177827 -0.19185449 -0.14382121 0.0020665259 0.008475249 0.041574612
-0.27145272 0.03388714 -0.35760885 -0.034912325 -0.10509599 -0.26501262 0.088992074 0.07775929
-0.08263241 -0.26424992 -0.22568719 -0.18731456 -0.17470744 -0.08336714 -0.23202834 -0.1803305
-0.042582545 -0.046812117 -0.13866219 -0.07993221 -0.040559687 -0.035849385 -0.06943339 -0.15850517
0.0668981 0.04758323 -0.2716201 -0.12928098 0.018354937 0.03394993 0.050037093 0.043249663
0.107493885 -0.12871133 -0.11507834 -0.04190008 -0.1737111 -0.16458458 0.059149086 -0.14996126
-0.06968239 -0.24378107 -0.22745514 0.06705292 -0.13940343 0.0033540057 -0.10439567 0.05850917
-0.055391014 0.035832405 -0.0627068 0.1949722 0.10230252 -0.2558195 -0.043391865 -0.0053747175
00000000: 13cd c43d a210 023e 0a81 573c b54c a1bd
00000010: 3892 3abe 49b7 9fbd d5ae 0cbd 5efd 813d
00000020: 17ec 26bc eea1 81bd 0d15 2ebe 2a73 b53d
00000030: d07c 30bd e74c 1b3e 3970 cbbd 8f9e 36bd
00000040: e0f6 243d 3473 38be 081f 063e 9e70 5ebe
00000050: 3e02 ebbd 0e86 173d 26e1 31be a816 77be
00000060: 1292 9d3d 5095 713d 0433 cebd b4f6 0e3e
00000070: 1a84 f2bd 4417 a53d 4dc3 113e f6c4 ecbd
00000080: 48ef 70be ba06 a33d c038 d23b 3b35 b33d
00000090: e589 4ebe b00b efbd f4fa dc3d 763b f4bd
000000a0: 0606 04be 0c51 f5bd cf04 fdbd 5081 10bd
000000b0: 7784 f7bd c2f9 33be 3ca0 963b 976b 3e3d
000000c0: d174 c03b f70f c3bd 3152 5bbe 875f 42be
000000d0: d706 5ebe 1b62 1abe c749 f33b 8132 67be
000000e0: 6177 e3bd 772d 08be 5362 89bc 7af1 78be
000000f0: ad28 5cbe 9936 87be 3c85 febd 8275 c53c
00000100: 2c1d 993d 0b8c b43c 0015 f8bd b8f2 6bbe
00000110: 808a 70bd 00d7 b53b 85fb 74bd 5cf2 a4be
00000120: 88f5 5e3b cd54 71be be66 3bbc a6d9 7ebe
00000130: 1db2 28be 873a 11be 0bae 0fbd 9d56 ba3d
00000140: 9005 b6bd 08c3 5bbe 816b 34bd 38e5 86bd
00000150: eb49 5cbe 47c6 303d a84a 00bd edcb 3abe
00000160: 2d01 a3be 0bc2 72bd 9a83 01bd b617 d4bd
00000170: 95df bbbd f30b 4cbe ed06 69be 1a0f a5bd
00000180: fa0c 00be 8a47 08be 6923 5dbe 27ca dd3c
00000190: ab17 bdbd 7ab7 f4bd 04bf 60bd b539 80be
000001a0: d979 18bd 96d3 3dbe 7b64 64bd 366f 17be
000001b0: 4419 53bd afd8 8dbd 0cac a2bd 43da 47be
000001c0: 1082 9dbc dce9 65bc 5e01 78be 3b8a 27be
000001d0: 384f 22be ec6d 05bd 3c01 73bc 44e0 fdbd
000001e0: 9483 083d 44eb 6abe 4d8c fb3d e076 8ebc
000001f0: e081 6ebd 5235 2fbe 486b 55be cbf1 a2be
00000200: eb03 9cbe 93bc 98be 9320 abbd a02e 1f3c
00000210: 81b8 11be 86b1 bcbd 7353 74be b2e3 87bd
00000220: 899d 30be 4e94 3ebe 79f9 5fbe 6608 60bb
00000230: 7ec1 8ebe 80fa f2bc 0659 dabc d029 f53b
00000240: 85cc 63bd 44d3 6d3a 5104 eebd 9bec 38bd
00000250: 39ae dfbd 883c b2be cee5 af3b f8f9 9c3b
00000260: 0e84 85be 12c1 34be 1a65 31be 2709 82be
00000270: a900 33be dd92 283b 2e7a 71bc 62f1 4fbb
00000280: 4bbe e9bd c44a 90bd 2437 07bd 4364 77be
00000290: d4ef 24be 4812 70bd b86c 6dbe eeb4 33bd
000002a0: 1d15 1bbe 4589 6e3c 30cc ee3c 8efe 3dbd
000002b0: 2db7 36be 405a 583c 6eb1 04be 00e1 c7bb
000002c0: 31ea 8cbd 39f0 233d cc32 1bbe c065 a1bd
000002d0: 38d4 833d 16db f6bd 754d a33d 7934 813d
000002e0: eaeb cd3d 3a10 13be 9c94 283d 814d 663d
000002f0: 064b 96bd 4629 8f3d d361 643d ebdd 52be
00000300: 3092 1d3d 9d48 313e 2071 d03d 8175 44be
00000310: de45 13be 8d6e 073b c5db 0a3c 244a 2a3d
00000320: dafb 8abe 3ecd 0a3d 8218 b7be 3a00 0fbd
00000330: 913c d7bd bcaf 87be 7a41 b63d 4340 9f3d
00000340: 2e3b a9bd c44b 87be 8b1a 67be 63cf 3fbe
00000350: 82e6 32be 64bc aabd d698 6dbe 8fa8 38be
00000360: 096b 2ebd 10be 3fbd 76fd 0dbe 80b3 a3bd
00000370: ea21 26bd ced6 12bd 1833 8ebd 2e4f 22be
00000380: df01 893d a2e6 423d ca11 8bbe 3c62 04be
00000390: 185d 963c 150f 0b3d b2f3 4c3d 8f26 313d
000003a0: c125 dc3d e7cc 03be 31ae ebbd 6b9f 2bbd
000003b0: 53e1 31be dc88 28be 5046 723d 728f 19be
000003c0: a4b5 8ebd bfa1 79be 00ea 68be 0b53 893d
000003d0: c6bf 0ebe e1ce 5b3b 66cd d5bd 50a7 6f3d
000003e0: b0e1 62bd 00c5 123d 6c6c 80bd cba6 473e
000003f0: fc83 d13d c6fa 82be abbb 31bd 661e b0bb

conv2.lin_l.weight f4 [128, 64]
-0.11400031 -0.14342986 -0.1681385 -0.075043865 -0.13864625 0.095424384 -0.10652185 0.0015429504
-0.054868154 -0.08365328 -0.1040388 -0.081339434 -0.11652437 -0.102206446 -0.10492221 0.017715717
-0.021332845 0.055356186 -0.017929913 0.004401573 -0.071865566 0.057260558 -0.19033499 -0.13156356
-0.058849014 0.12974682 -0.065643586 0.0090072965 -0.018340232 0.09305401 -0.03399946 -0.12129206
-0.0044082664 -0.099381424 -0.17883834 -0.088882595 0.0034293982 0.006882349 -0.13182168 0.022641476
-0.10940951 -0.00881784 0.013521773 0.099580035 -0.15120608 -0.08155198 0.057692155 -0.10511736
0.040728144 -0.09500431 -0.072970144 0.012326217 -0.022582578 0.066969685 -0.1165618 -0.06957042
0.04769393 0.046529133 -0.104944624 -0.00519326 0.013624092 0.06528519 -0.015838135 0.025034025
-0.057293445 -0.022873878 0.026029991 0.04316633 -0.0519774 -0.049597323 0.024995638 0.032594968
0.034186408 -0.011870373 0.065663874 0.07436174 0.05279089 0.053161055 -0.0470727 0.0017354725
-0.074781455 0.042020887 -0.04858654 0.063523725 0.04198068 0.071968876 -0.0005907808 -0.037520092
-0.029826665 -0.080681995 0.15592054 -0.09422721 0.040500324 -0.03696557 -0.053351406 0.06976961
-0.04419454 -0.019859746 0.05031054 0.04887945 0.055268068 0.038920213 0.03343422 0.06691996
-0.06291371 -0.107940964 0.037498973 -0.009628467 0.10863731 -0.069301166 -0.047504343 0.0943716
0.12260128 -0.036875274 0.027918164 0.017897068 -0.12067411 -0.07249809 0.032849178 0.010309249
-0.024057928 0.17731985 -0.018923452 0.022062926 0.04259268 -0.068034254 -0.099641226 -0.06396471
0.0622509 0.12503126 -0.0059004324 0.13724895 -0.016864534 0.11358973 0.08011626 0.06319588
0.13463147 -0.012713721 -0.0070083453 0.07492076 0.04979532 0.12534194 0.15385969 0.11938504
0.07905219 0.041532855 -0.032866023 0.032554053 0.088242486 -0.059408456 0.006154951 -0.03173953
-0.14643604 -0.095839985 0.05152028 -0.013391192 0.020837111 0.06533184 -0.049658705 0.067046426
-0.09142948 0.048634578 0.06267014 -0.07335129 -0.047441676 0.030177241 0.018043794 0.07309488
0.15593645 -0.029754214 -0.037384786 -0.005402151 -0.13012786 0.11098759 -0.25533026 0.030060822
-0.041557092 0.11342624 -0.028902544 -0.052968286 0.039801612 -0.038555164 0.06560267 0.0857343
0.0072079333 0.13817783 0.099007264 -0.06347422 0.12642917 -0.027319698 0.047225337 -0.11768742
-0.10101426 -0.0446477 -0.046047226 -0.07790418 0.020649886 -0.107751496 0.009109665 0.019528018
0.10383219 0.10482868 0.075966865 0.10690759 -0.015152869 0.06715862 0.025643367 0.049812287
-0.031379383 0.01755513 0.036626782 -0.016424585 -0.03826184 0.076730475 -0.103368334 -0.09118091
-0.0043023885 -0.005227897 -0.04389863 0.016837664 -0.123195775 0.024124902 0.042377878 0.074239075
0.11378338 0.062475096 0.12874408 -0.06795633 -0.19272551 -0.047963563 0.004043992 0.03079548
-0.025938759 -0.020601386 0.056498982 0.009197607 -0.11921779 -0.015435501 -0.034429558 0.10179151
-0.092099406 0.06929211 0.0472066 -0.033560574 -0.011207407 0.12013632 -0.030752493 0.054720208
0.039828926 -0.054572344 -0.0819294 0.10066696 0.0019049789 -0.11391769 0.026046798 -0.07960583
00000000: ff78 e9bd 47df 12be 802c 2cbe 99b0 99bd
00000010: 48f9 0dbe dc6d c33d 2128 dabd d33c ca3a
00000020: 6ebd 60bd 6952 abbd 4b12 d5bd 4a95 a6bd
00000030: 54a4 eebd 9d51 d1bd 75e1 d6bd 8d20 913c
00000040: 38c2 aebc 2bbd 623d c1e1 92bc 123b 903b
00000050: 412e 93bd 0c8a 6a3d 2de7 42be 99b8 06be
00000060: aa0b 71bd 5adc 043e 2570 86bd 5793 133c
00000070: 413e 96bc 1a93 be3d 0543 0bbd f967 f8bd
00000080: 3873 90bb 7d88 cbbd 6621 37be 1408 b6bd
00000090: c1bf 603b 5485 e13b 43fc 06be 9e7a b93c
000000a0: 1812 e0bd b478 10bc 6d8a 5d3c 9ef0 cb3d
000000b0: c4d5 1abe b904 a7bd 9c4e 6c3d c547 d7bd
000000c0: 8ed2 263d 9f91 c2bd 5f71 95bd e7f3 493c
000000d0: 19ff b8bc 6727 893d f4b7 eebd f07a 8ebd
000000e0: b65a 433d 5595 3e3d 35ed d6bd 392c aabb
000000f0: 9537 5f3c 3eb4 853d fabe 81bc 2814 cd3c
00000100: 88ac 6abd 0062 bbbc d93c d53c 2dcf 303d
00000110: 41e6 54bd 9026 4bbd a7c3 cc3c 4d82 053d
00000120: 0c07 0c3d f47b 42bc c87a 863d f84a 983d
00000130: 433b 583d 68bf 593d 4ecf 40bd cb78 e33a
00000140: 0527 99bd 181e 2c3d ae02 47bd ba18 823d
00000150: eff3 2b3d 6b64 933d a1de 1aba abae 19bd
00000160: 0d57 f4bc 9a3c a5bd a2a9 1f3e 32fa c0bd
00000170: abe3 253d 3669 17bd 0187 5abd 5fe3 8e3d
00000180: 5505 35bd e8b0 a2bc 6d12 4e3d d135 483d
00000190: c560 623d cd6a 1f3d 52f2 083d 550d 893d
000001a0: e7d8 80bd 2710 ddbd 8698 193d b8c0 1dbc
000001b0: 3d7d de3d c5ed 8dbd ea93 42bd e645 c13d
000001c0: 6116 fb3d 870a 17bd a2b4 e43c df9c 923c
000001d0: fd23 f7bd e179 94bd dc8c 063d 20e8 283c
000001e0: 2215 c5bc 5693 353e 5b05 9bbc 4fbd b43c
000001f0: a975 2e3d 8b55 8bbd b310 ccbd eeff 82bd
00000200: cdfa 7e3d 3208 003e 6a58 c1bb fd8a 0c3e
00000210: 7e27 8abc bba1 e83d fe13 a43d d76c 813d
00000220: d5dc 093e 364d 50bc 43a6 e5bb 0e70 993d
00000230: 2df6 4b3d a359 003e 658d 1d3e 2580 f43d
00000240: 1de6 a13d 5b1e 2a3d 869e 06bd 6657 053d
00000250: 7ab8 b43d 4856 73bd 79af c93b 4f01 02bd
00000260: 54f3 15be c147 c4bd ee06 533d bb66 5bbc
00000270: 97b2 aa3c b3cc 853d ed66 4bbd a34f 893d
00000280: 613f bbbd 0d35 473d 3459 803d 3339 96bd
00000290: 3452 42bd 4336 f73c 94d0 933c c5b2 953d
000002a0: cead 1f3e 1cbf f3bc ca20 19bd 8704 b1bb
000002b0: 3d40 05be 764d e33d a6ba 82be 1d42 f63c
000002c0: c537 2abd 044c e83d 07c5 ecbc 46f5 58bd
000002d0: 0407 233d 05ec 1dbd b15a 863d 7795 af3d
000002e0: 8730 ec3b 7d7e 0d3e 52c4 ca3d c6fe 81bd
000002f0: a676 013e 8fcd dfbc 5b6f 413d 1a06 f1bd
00000300: 90e0 cebd 82e0 36bd 049c 3cbd 3a8c 9fbd
00000310: f329 a93c d1ac dcbd b440 153c 39f9 9f3c
00000320: f9a5 d43d 6bb0 d63d 8494 9b3d 5ef2 da3d
00000330: bd43 78bc 758a 893d 0a12 d23c f807 4c3d
00000340: ab87 00bd c7cf 8f3c f705 163d da8c 86bc
00000350: 72b8 1cbd de24 9d3d c7b2 d3bd 0fbd babd
00000360: 0dfb 8cbb c74e abbb 0dcf 33bd 24ef 893c
00000370: 114e fcbd 96a1 c53c 6d94 2d3d a80a 983d
00000380: 4307 e93d e3e5 7f3d 7dd5 033e b02c 8bbd
00000390: d659 45be 7175 44bd 7783 843b cd46 fc3c
000003a0: 857d d4bc 3dc4 a8bc 7a6b 673d 8fb1 163c
000003b0: 7528 f4bd 2fe5 7cbc 0206 0dbd 1178 d03d
000003c0: 9d9e bcbd 06e9 8d3d b55b 413d d076 09bd
000003d0: 469f 37bc 080a f63d a7ec fbbc 4c22 603d
000003e0: a823 233d 4087 5fbd 9aca a7bd 7b2a ce3d
000003f0: 7cb0 f93a ae4d e9bd 1860 d53c 6208 a3bd

conv2.lin_l.bias f4 [128]
0.005719391 0.007386141 -0.01246044 -0.002629992 -0.0067618163 0.002852559 0.006236905 -0.0020707534
-0.007635563 0.014500589 -0.013796052 0.018274585 0.0037587746 -0.0043169665 -0.005026396 0.0038921773
0.010240541 0.0054987934 -0.01462519 -0.011205997 -0.0172099 0.0013322837 -0.016791986 0.0039805123
-0.011634019 0.00379526 -0.0048401933 0.010913593 0.014803155 0.00440237 -0.005424735 -0.0042457436
0.00016099465 -0.0026729745 -0.0062424764 -0.0007583888 -0.0014990966 -0.0037032003 -0.016953604 0.0020357408
-0.007820254 0.0049276045 0.0033002282 -0.0026667153 0.0009247466 -0.0073940707 0.0034962033 -0.0019941737
-0.0027561674 0.004443296 -0.0051541957 -0.009283647 0.002262962 -0.001325519 0.017598143 -0.0070202406
-0.0100248335 0.0040678484 -0.0039566755 -0.010770637 -0.0039702747 0.002803911 0.016738707 0.0028258343
0.008682704 0.008590523 0.0149172135 -0.0070769363 -0.006041385 0.0013102468 0.0071610743 -0.0020584522
0.008050876 0.01115279 0.011167966 0.0028805593 -0.0013440964 -0.011254772 -0.01111802 0.008096977
0.016447749 0.006757834 0.017548146 -0.0018882127 -0.0015422354 -0.0074911104 -0.010563019 -0.013522752
0.009595584 -0.0069654626 0.0076039033 0.015417308 -0.004959091 -0.005930743 0.0123490365 -0.0029088173
-0.012628009 0.0032069443 0.0002798059 -0.010402757 -0.009715888 -0.0069733146 -0.016482143 -0.0022407817
0.016096465 0.014001204 -0.01300235 -0.0033686026 0.0021840732 0.00072499353 0.010332141 -0.003090397
0.00585992 -0.0002430114 -0.013179869 -0.002282678 0.0016799043 -0.007950704 0.010193074 0.0028855258
-0.018451843 -0.0043587117 0.003196227 0.0057668714 0.014012618 -0.006517216 0.003130091 0.006647928
00000000: bb69 bb3b 7107 f23b e026 4cbc f25b 2cbb
00000010: 3a92 ddbb 00f2 3a3b f45e cc3b 7ab5 07bb
00000020: bf33 fabb e193 6d3c d608 62bc 95b4 953c
00000030: c655 763b 5775 8dbb 77b4 a4bb e613 7f3b
00000040: f1c7 273c 392f b43b 7e9e 6fbc 5c99 37bc
00000050: c7fb 8cbc 06a0 ae3a 598f 89bc f56e 823b
00000060: 9d9c 3ebc e6b9 783b 7c9a 9ebb edce 323c
00000070: ef88 723c c241 903b fac1 b1bb e11f 8bbb
00000080: acd0 2839 122d 2fbb b08d ccbb 9cce 46ba
00000090: 567d c4ba 64b1 72bb 49e2 8abc 106a 053b
000000a0: 8620 00bc be77 a13b a448 583b 0fc4 2ebb
000000b0: b26a 723a f649 f2bb 8f20 653b afb0 02bb
000000c0: d1a0 34bb 1299 913b 87e4 a8bb 701a 18bc
000000d0: 344e 143b 0abd adba fb29 903c 0c0a e6bb
000000e0: 333f 24bc 964b 853b 00a7 81bb 5377 30bc
000000f0: 1419 82bb d2c1 373b 9d1f 893c a231 393b
00000100: e641 0e3c 44bf 0c3c 5467 743c a5e5 e7bb
00000110: cff6 c5bb 96bc ab3a 72a7 ea3b 19e7 06bb
00000120: d2e7 033c 31ba 363c d8f9 363c c4c7 3c3b
00000130: 642c b0ba ef65 38bc 5b28 36bc 2fa9 043c
00000140: 6ebd 863c d270 dd3b 21c1 8f3c e87d f7ba
00000150: d524 caba fd77 f5bb 8310 2dbc 888e 5dbc
00000160: cc36 1d3c 893e e4bb 2a2a f93b e098 7c3c
00000170: df7f a2bb ae56 c2bb 9d53 4a3c dba1 3ebb
00000180: b5e5 4ebc 992b 523b eab2 9239 5370 2abc
00000190: 632f 1fbc 6780 e4bb 8f05 87bc 14da 12bb
000001a0: bcdc 833c 4e65 653c cf07 55bc c6c3 5cbb
000001b0: ab22 0f3b 7e0d 3e3a 2448 293c 4288 4abb
000001c0: 9204 c03b e0d0 7eb9 61f0 57bc fb98 15bb
000001d0: 3c30 dc3a ab43 02bc da00 273c 171b 3d3b
000001e0: 5228 97bc 86d3 8ebb ca77 513b 06f8 bc3b
000001f0: 2e95 653c 5f8e d5bb 3622 4d3b ddd6 d93b

conv2.lin_r.weight f4 [128, 64]
-0.031420227 -0.1631703 0.008077286 0.058602005 -0.064785846 0.048971068 -0.087864205 -0.12072839
-0.051315196 0.15162414 -0.09803729 -0.08224037 0.047945995 -0.08849844 -0.04266578 -0.09027111
0.016261978 -0.09142601 0.05861915 -0.09255005 -0.021366084 -0.016607266 -0.201542 -0.1521114
-0.055671766 0.015936768 -0.14114745 -0.09212472 -0.048359185 0.09538918 0.01589241 -0.0024393192
-0.012979397 -0.035179798 0.028676381 -0.034677148 -0.101357564 0.0350018 0.059199423 -0.10833688
-0.09457218 -0.016820217 -0.0059370277 -0.06936791 -0.08803329 0.051763505 -0.0746211 0.07426531
-0.016729433 0.028598636 -0.10749882 0.09746023 0.061846316 -0.15471897 0.051045068 -0.04973022
-0.021786164 -0.007597105 0.089524746 0.06495445 0.015192412 -0.055706408 -0.05241223 0.12108265
-0.09814734 0.14789814 0.05415649 0.046941195 0.121183686 0.10314597 0.00042198322 -0.031290583
0.0406764 0.1278209 0.0437676 0.07450271 0.09570422 -0.07978158 3.4725745e-05 -0.08014644
-0.059929002 0.036864027 -0.09124213 -0.017138354 -0.09081646 -0.10302519 0.031939633 0.08454331
-0.098399 -0.06839147 0.0027956616 -0.08639467 0.08783075 0.007479203 0.016350366 0.009415522
-0.13475639 0.04674509 -0.026736546 0.034644324 0.10425765 0.09694604 -0.06528264 0.09408157
-0.004410172 0.040662892 -0.09365625 -0.028988365 -0.050995164 -0.018173547 -0.16374874 0.039574206
0.11158413 -0.025585596 0.11735129 -0.11105832 -0.13460578 0.00985307 -0.11228978 -0.112904795
0.014184452 0.040790703 -0.09945734 -0.07412699 -0.04420395 -0.021724254 0.067776844 0.0886482
0.13998523 0.11290267 -0.039992157 0.08316949 0.085276894 0.13488641 0.10531063 0.109143615
0.0049141385 0.074945346 0.11765666 -0.06355698 0.13230419 -0.07152082 0.0125135165 0.113390446
0.047150802 0.13558242 0.1215129 0.0069440366 0.1031192 -0.029546548 -0.030849876 -0.11163597
0.08428065 -0.056166653 -0.048916075 0.10300441 -0.08659878 0.064520895 0.094277285 0.105930224
-0.008561898 0.039836407 0.11172305 0.078231744 -0.07565301 0.017277027 -0.025180927 0.11068969
-0.09753066 0.049440697 -0.04385582 0.10346664 0.012479197 -0.041325513 -0.07083738 0.06660377
-0.11056739 -0.064799175 -0.05236205 0.045940064 0.10618796 0.071816415 0.061875515 -0.05215362
0.0665904 -0.06638288 0.030218346 0.014701038 -0.06568977 0.0697096 0.14813663 0.084664434
-0.0038736218 0.035601027 0.09912908 0.08552287 0.05964687 0.053175498 0.094708726 0.008271367
0.049134057 0.0068896166 -0.032833092 0.080045015 0.06842253 0.055005122 -0.07615398 -0.04085661
-0.05486314 0.07346259 0.092081755 0.109455995 -0.09559743 0.020891543 -0.099783845 -0.0014084787
-0.09921032 -0.010417486 0.0684544 0.048480075 -0.05216844 0.04915089 0.019464586 0.116000585
-0.013263043 -0.04553664 -0.027241232 0.09495611 -0.14178723 0.050685026 0.03392761 -0.019925388
-0.08996521 0.058662724 0.031587042 -0.048726898 -0.006014929 -0.11002426 -0.13823654 -0.08557801
0.047551196 0.041266434 0.04832558 0.093534335 -0.048692975 0.010249374 -0.10933539 -0.028622922
0.013872854 0.1168895 0.06613564 -0.021228688 -0.006844966 -0.017781219 -0.035285134 -0.0030075014
00000000: 7fb2 00bd 1d16 27be 9856 043c a808 703d
00000010: 71ae 84bd e395 483d 26f2 b3bd 7240 f7bd
00000020: e22f 52bd 5c43 1b3e c6c7 c8bd a46d a8bd
00000030: 0563 443d ac3e b5bd 50c2 2ebd 0fe0 b8bd
00000040: d737 853c 8f3d bbbd a21a 703d e18a bdbd
00000050: ed07 afbc f60b 88bc 0761 4ebe 17c3 1bbe
00000060: 1408 64bd d38d 823c f588 10be e3ab bcbd
00000070: 4814 46bd 675b c33d cd30 823c fcdc 1fbb
00000080: 89a7 54bc b118 10bd bbea ea3c a009 0ebd
00000090: 8e94 cfbd 0c5e 0f3d 187b 723d badf ddbd
000000a0: 0faf c1bd 8dca 89bc 668b c2bb c310 8ebd
000000b0: cc4a b4bd f805 543d f3d2 98bd 6918 983d
000000c0: 2a0c 89bc b047 ea3c 5728 dcbd 3b99 c73d
000000d0: 9052 7d3d a66e 1ebe a214 513d eab1 4bbd
000000e0: e678 b2bc 23f1 f8bb c058 b73d d706 853d
000000f0: 98e9 783c 672c 64bd 35ae 56bd 2efa f73d
00000100: 7901 c9bd 9c72 173e 32d3 5d3d 6945 403d
00000110: 272f f83d 323e d33d a13d dd39 8e2a 00bd
00000120: 4c9c 263d 7be3 023e a845 333d e094 983d
00000130: 9300 c43d 8664 a3bd 7ca6 1138 d123 a4bd
00000140: 1d78 75bd bcfe 163d 27dd babd bc65 8cbc
00000150: fbfd b9bd dffe d2bd 22d3 023d 0b25 ad3d
00000160: 6a85 c9bd d410 8cbd 6b37 373b b0ef b0bd
00000170: 9ce0 b33d 1a14 f53b 34f1 853c 9043 1a3c
00000180: 94fd 09be c877 3f3d 9a06 dbbc 35e7 0d3d
00000190: 0985 d53d a58b c63d e8b2 85bd d7ad c03d
000001a0: 3483 90bb 228e 263d d9ce bfbd 0279 edbc
000001b0: 4ee0 50bd b1e0 94bc c0ad 27be 9018 223d
000001c0: 3886 e43d e298 d1bc e055 f03d 8b72 e3bd
000001d0: 19d6 09be c56e 213c 2ff8 e5bd a13a e7bd
000001e0: e765 683c 2714 273d 4ab0 cbbd e4cf 97bd
000001f0: 330f 35bd 10f7 b1bc 96ce 8a3d 308d b53d
00000200: 4a58 0f3e 8439 e73d d1ce 23bd c454 aa3d
00000210: a7a5 ae3d aa1f 0a3e 19ad d73d b086 df3d
00000220: c806 a13b f27c 993d faf5 f03d 292a 82bd
00000230: c07a 073e 8279 92bd 7e05 4d3c 4039 e83d
00000240: 3321 413d 1ed6 0a3e c1db f83d cd8a e33b
00000250: 2930 d33d 9a0b f2bc e1b8 fcbc 66a1 e4bd
00000260: 559b ac3d 010f 66bd 395c 48bd faf3 d23d
00000270: b35a b1bd 8823 843d 7314 c13d f2f1 d83d
00000280: 3447 0cbc 802b 233d 0ecf e43d f737 a03d
00000290: f7ef 9abd 8d88 8d3c 3b48 cebc 47b1 e23d
000002a0: 28be c7bd 5482 4a3d 29a2 33bd 51e6 d33d
000002b0: 8c75 4c3c f144 29bd 3013 91bd 8f67 883d
000002c0: 2871 e2bd 6eb5 84bd 9779 56bd a62b 3c3d
000002d0: 1379 d93d 7c14 933d 2e71 7d3d 099f 55bd
000002e0: 8c60 883d bff3 87bd 778c f73c 9fdc 703c
000002f0: 5c88 86bd e8c3 8e3d 21b1 173e 8c64 ad3d
00000300: 97dc 7dbb 62d2 113d 3004 cb3d 9d26 af3d
00000310: 4750 743d 8dce 593d a6f6 c13d a184 073c
00000320: cb40 493d 4bc2 e13b fe7b 06bd a4ee a33d
00000330: 1d21 8c3d 0d4d 613d 9ef6 9bbd 4359 27bd
00000340: 2cb8 60bd 8e73 963d 5c95 bc3d 772a e03d
00000350: 96c8 c3bd be24 ab3c 795b ccbd b49c b8ba
00000360: c82e cbbd 1aae 2abc d231 8c3d 0b93 463d
00000370: 93ae 55bd 7252 493d 3274 9f3c b791 ed3d
00000380: 3c4d 59bc a184 3abd 0129 dfbc 5978 c23d
00000390: ac30 11be 1a9b 4f3d adf7 0a3d 913a a3bc
000003a0: ae3f b8bd 5348 703d 6a61 013d db95 47bd
000003b0: e218 c5bb 6654 e1bd e18d 0dbe 8643 afbd
000003c0: 0bc5 423d fe06 293d 0bf1 453d ee8e bf3d
000003d0: 4972 47bd feec 273c 3ceb dfbd 9e7a eabc
000003e0: f84a 633c c363 ef3d 1f72 873d c9e7 adbc
000003f0: bd4b e0bb eba9 91bc 2587 10bd 8019 45bb
