best_mlp_model.pth (torch, 135758 bytes, 6 tensors)

fc1.weight f4 [128, 128]
000000 16 fc 44 3e ce 0b 79 be e2 51 b4 3e 10 45 aa be
       0.19236788 -0.2432091 0.35218722 -0.33255816
000010 d3 e4 30 be a8 ac f2 bd 95 28 8c be 28 a3 95 bd
       -0.1727479 -0.11849338 -0.27374712 -0.0730651
000020 d6 ce b3 3e 57 64 ec 3e 72 cb 16 3e 8c a3 43 bd
       0.3511874 0.46170303 0.14726046 -0.047763392
000030 80 69 31 3d cb 9d 88 3e 37 13 05 3f 22 f6 d8 3e
       0.043313503 0.26682886 0.51982445 0.42375284
000040 ca 89 c8 be 50 f1 7f 3e f0 33 3c 3f 3c ca 69 be
       -0.39167625 0.24994397 0.7351675 -0.22831053
000050 58 c7 09 3e 38 a2 06 3e 4c a2 24 3f 2c 52 f7 3e
       0.1345495 0.13147819 0.64310145 0.4830488
000060 b7 04 ca 3d 71 77 e0 3e 86 28 ea bd 4e c7 8a 3e
       0.098641805 0.43841127 -0.114335105 0.27105182
000070 9f e6 d4 bd e3 6a 18 be 36 0a bd be 75 2d 9e be
       -0.1039555 -0.14884524 -0.36921853 -0.30894056
000080 0c 52 2e bc 62 e3 7f 3e 1a 5b 21 bc da 42 8e 3e
       -0.010639679 0.24989083 -0.00984838 0.2778538
000090 54 81 b1 bd 4a 02 8f 3e 79 b9 7f 3e ed 2f 09 3e
       -0.086672455 0.27931434 0.24973096 0.13397188
0000a0 85 e4 6b bc 2a 99 e8 3d 68 36 cc be ef 09 fc 3d
       -0.014397745 0.11357339 -0.3988526 0.12306582
0000b0 bc 57 1e be 87 1d 91 3c 03 07 ad 3d f0 1a 0f bf
       -0.15463156 0.017714275 0.08448603 -0.5590048
0000c0 17 48 86 3d bb 6d ca 3e 8f 1a aa be 71 28 a5 3c
       0.06556719 0.39536843 -0.33223388 0.020160886
0000d0 63 84 4f 3d 64 96 7b bd 96 52 a7 be 33 47 e2 3c
       0.050663363 -0.06142272 -0.32680196 0.027621841
0000e0 98 2d 49 3e d0 76 15 3f 0f 62 0f be 30 7d 8a be
       0.19646299 0.5838442 -0.1400225 -0.27048635
0000f0 a6 f9 17 be ff f2 4c bf b3 7a b7 be 6e 9a 94 be
       -0.14841327 -0.8005828 -0.358358 -0.2902407
000100 56 1d f4 3e 24 99 cd 3e 60 6a 28 bd 17 dd 81 3e
       0.47678632 0.401559 -0.041117072 0.2536399
000110 c6 47 6f 3e 91 c3 2f 3e 1a 02 a6 3e f3 03 c6 3e
       0.23367223 0.17164446 0.32423478 0.38674888
000120 8a db 02 be 85 76 34 3e 58 21 67 3e 64 8b 35 be
       -0.1277906 0.17623337 0.22571313 -0.17728955
000130 8e f6 36 bf 15 08 de 3e 94 19 11 3e 9e f5 09 be
       -0.7146996 0.4336554 0.14169914 -0.13472602
000140 7b ef c8 3e bc e7 6b be 24 ea 67 3c 92 cf 0c bd
       0.3924521 -0.23037618 0.014154945 -0.034377642
000150 23 83 72 be eb f6 ed 3e 7d c6 b5 3c 4f fc 55 3e
       -0.23682837 0.46477446 0.022189373 0.2089703
000160 03 56 d8 bc 73 b4 84 3e 49 f3 c1 3d b9 69 b8 be
       -0.026408201 0.25918922 0.09470231 -0.3601816
000170 fc 4d cc 3d 0f a6 84 3e ea 6f 22 3d 50 eb aa 3d
       0.09975812 0.25907943 0.03965751 0.083456635
000180 05 03 ec 3e 27 1a d9 bd ed 0e 0d 3e 03 c4 7b 3d
       0.46096054 -0.10600691 0.13775225 0.06146623
000190 0b 27 1f be 6c 58 ae 3c e1 f0 a0 3c 75 ef f7 bb
       -0.15542237 0.021282397 0.01964611 -0.0075663873
0001a0 21 f9 84 be 59 cb 4f be e2 a0 a2 3c 33 4f 15 3e
       -0.2597132 -0.20292415 0.019852106 0.14580993
0001b0 bb 91 f3 be c4 6d 02 bf a7 b0 d0 be 5b 66 ee 3d
       -0.4757212 -0.5094874 -0.40759775 0.116406165
0001c0 ec ac 25 be 9a 53 35 3c 46 39 51 3e 27 bd 38 3f
       -0.16179246 0.011067295 0.20432004 0.72163624
0001d0 92 a6 03 3d 1d fb 11 3d 4c e4 e7 3e 66 ae 81 be
       0.032141276 0.03563987 0.45291364 -0.25328368
0001e0 9e dd 54 3d 11 bc 3b bf e1 44 99 3e dd 23 62 3e
       0.051969163 -0.7333384 0.29935363 0.22083993
0001f0 ec a5 c5 be 70 c8 88 be 2f 25 15 bf 1a ec 8b bd
       -0.3860315 -0.26715422 -0.5825986 -0.06832142
000200 68 61 65 bc 6d 91 99 3d a3 53 b4 bd 00 c1 6f ba
       -0.014000274 0.07498441 -0.08805015 -0.00091458857
000210 46 65 35 3d 12 c8 7b 3d 00 8d 89 bd 90 93 a5 bc
       0.044286035 0.0614701 -0.06716347 -0.020211965
000220 dd 3b b0 bd 8c 6b ca bc 6b 11 21 bd f6 07 63 3d
       -0.08605168 -0.024709485 -0.03932325 0.055427514
000230 72 fe 42 3d c8 d7 6d bc 36 75 f2 bc ef fe ac 3d
       0.04760594 -0.014516778 -0.029596906 0.08447062
000240 ca 82 7d 3d 46 c4 42 3d ea f2 17 3d 84 d7 d1 bc
       0.06189231 0.047550462 0.037096895 -0.025615461
000250 cf fd 0d bd f0 d9 c7 bb 01 05 a6 3d 9d f5 8c 3d
       -0.03466588 -0.006098978 0.08106423 0.068827845
000260 70 5e 71 bd 89 9a 9a 3d 8a 88 51 3d a3 51 98 3d
       -0.058927953 0.075490065 0.051155604 0.07437446
000270 00 b5 ba 3b a0 54 71 bd ff 3f 8a 3d 3f 31 7c bd
       0.0056978464 -0.058918595 0.067504875 -0.061570402
000280 38 59 ba bc a4 c5 8b bd c6 c9 4b bd cb 67 9f 3d
       -0.022747621 -0.06824806 -0.049752973 0.07783469
000290 52 00 26 bd bd aa a3 3d 15 98 11 bd a6 4d b4 bd
       -0.04052765 0.0799155 -0.035545427 -0.08803873
0002a0 80 c9 d3 3b e3 74 8f 3d 4a df 40 3d e0 bb b4 bb
       0.0064632297 0.07004716 0.047087945 -0.0055155605
0002b0 87 7f 99 3d 25 3e 82 3d d5 4c 86 3d 4e b4 31 3d
       0.07495027 0.063595094 0.06557623 0.043384843
0002c0 37 13 8b 3d 65 fc 41 bd e0 a1 ab 3c c0 c0 04 bc
       0.06790774 -0.047359843 0.020951211 -0.008102596
0002d0 70 84 07 3d 2c a3 ed 3c af 37 4a bd 6c ad a2 bd
       0.033085287 0.02900847 -0.04936951 -0.07943234
0002e0 8a f8 3c 3d 54 de 18 bd 58 9b 42 3c 09 c4 b1 3d
       0.046135463 -0.037321404 0.011877857 0.08679969
0002f0 d8 94 3a bc 2a 86 2e bd ed ab 2f bd 87 c9 8a 3d
       -0.011388026 -0.042608418 -0.04288857 0.067767195
000300 80 7e 26 3b 8a a6 46 3d 50 31 ae 3b 49 3b a3 bd
       0.002540499 0.048498668 0.005315937 -0.07970292
000310 f1 f0 af 3d 3a 80 f4 bc c3 10 85 3d 57 1d 01 bd
       0.08590878 -0.0298463 0.06497338 -0.03152212
000320 8e 55 1a 3d e6 ab 79 bd 8b da 90 3d a8 b3 16 3c
       0.037679248 -0.06095495 0.07072934 0.009198107
000330 60 1a 41 bd 61 eb ab bd a0 fa 52 bb 2c 23 f9 bc
       -0.047144294 -0.08394504 -0.0032192841 -0.03041228
000340 e6 a1 24 3d c0 8a b3 3c 12 d0 62 3d 98 b8 f9 bc
       0.04019346 0.021916747 0.055374213 -0.030483529
000350 bf eb 8f 3d 9a e2 06 3d 0c 40 99 bc b8 4a 83 bd
       0.07027387 0.032930948 -0.018707298 -0.06410736
000360 c2 34 48 3d 16 f5 58 3d 80 9c 82 ba d8 b5 21 bc
       0.04887844 0.052968107 -0.0009964854 -0.009870015
000370 50 71 f5 bc 37 4d 3a bd 54 0f 60 bd f2 a9 7d 3d
       -0.029961258 -0.045483794 -0.054702118 0.06192965
000380 80 89 92 3a 14 82 d9 3c 80 0d ec 3b a5 dc 80 3d
       0.0011179894 0.026551284 0.0072037578 0.062920846
000390 18 1f 71 bc eb 15 a8 3d 66 ec 36 bd 73 4d 48 bd
       -0.014716886 0.082073055 -0.04465904 -0.048901986
0003a0 00 7a e2 bb 54 e5 cd bc d3 43 8a 3d 35 4c ac 3d
       -0.006911516 -0.025133766 0.06751218 0.08412973
0003b0 a4 66 00 3d 84 e0 d9 3c ea 8a 15 3d 70 4d 78 3c
       0.031347886 0.026596315 0.036509432 0.015155181
0003c0 60 96 21 3c 9e 20 51 3d 60 72 4d 3c 7d 58 37 bd
       0.009862512 0.051056497 0.012539476 -0.044762123
0003d0 78 57 39 bc d7 de a3 3d 00 a8 74 b9 4d 97 2e bd
       -0.011312358 0.08001488 -0.00023332238 -0.04262476
0003e0 d7 04 85 3d cc ab bf 3c d0 c8 27 3c f8 f1 ac 3c
       0.06495064 0.023397349 0.0102407485 0.021111473
0003f0 75 e7 af 3d 9a 47 ab bd 7b 0d 90 3d 50 da c7 3c
       0.08589069 -0.08363266 0.07033821 0.024396092

fc1.bias f4 [128]
000000 32 e9 93 3c c9 93 89 bd 60 0d 21 bd 3d 18 aa bd
       0.018055532 -0.06717641 -0.039319396 -0.08305404
000010 70 c5 a1 bc b0 a2 e4 bb 50 be e2 bb 48 e6 43 3c
       -0.019747466 -0.0069774017 -0.0069196597 0.011956759
000020 20 a8 e6 bb 9b aa 4d bd c4 9a af bd 2d 57 88 bd
       -0.007039085 -0.05021153 -0.08574441 -0.066572525
000030 5e 42 78 bd a7 40 a3 bd bc cc 40 3c e3 ff 3e 3c
       -0.060610168 -0.07971316 0.0117675625 0.011657688
000040 7a 35 47 3c 76 c1 6d bd f4 fe 89 bd e3 6c 83 bd
       0.012158746 -0.058045827 -0.067380816 -0.06417253
000050 f5 09 2c 3c 8f 52 c9 3c ca 46 37 3d 5c a0 36 3d
       0.010500421 0.0245755 0.044745244 0.044586524
000060 aa 96 82 3c 39 d3 9d 3c 70 69 3b bd 99 22 41 bd
       0.015940983 0.019265758 -0.04575485 -0.047152136
000070 ff dd 41 3c 91 31 05 3d 62 0c 13 3d 62 71 a9 bd
       0.011832713 0.032517973 0.03590048 -0.08273579
000080 91 6e 5e 3c 2c 44 1b 3c a4 e6 69 bd 10 81 2f 3c
       0.013576166 0.009476703 -0.05710472 0.010711923
000090 62 a6 56 bd 58 ef c8 bc c7 46 a7 bd 58 be 31 bd
       -0.05240477 -0.02452819 -0.081677966 -0.043394417
0000a0 60 a0 d6 bb ec 4c a6 bd dd 10 40 3c 47 ee 73 bd
       -0.00654988 -0.081201404 0.0117227705 -0.05955341
0000b0 94 01 79 bd 16 b3 d0 3c 46 34 b2 bd c8 a9 3b 3d
       -0.06079252 0.02547602 -0.087013766 0.045816213
0000c0 6c de 2e bd 6b b8 1d 3c 61 8c 85 bd ca b7 12 bd
       -0.042692587 0.009626488 -0.06520916 -0.035819806
0000d0 99 be 2b bb a4 fd a2 3c b7 d5 32 3d 44 86 f4 bc
       -0.0026206134 0.019896336 0.043660846 -0.02984918
0000e0 3c 26 25 3c 28 e6 48 3c ed 64 94 bd b9 81 01 bb
       0.010079917 0.012261905 -0.072458126 -0.0019761159
0000f0 30 bb 26 bc 07 3c 02 bd 1b 2d 14 3d fc a5 3f 3c
       -0.010176465 -0.031795528 0.03617583 0.011697289
000100 75 da a7 3c 08 d6 2f bc 3f 89 2a 3c ad 40 36 3c
       0.02048991 -0.010732181 0.010408699 0.011123818
000110 d6 e5 3e 3c 1b e7 40 3c c0 8d 61 bc 6e f9 ee 3c
       0.011651477 0.01177385 -0.013766706 0.029171672
000120 bb 71 be bb 78 8d a1 bd 3a 7e 5b 3c 17 69 68 bd
       -0.0058118976 -0.07888311 0.013396794 -0.056740846
000130 88 8f 1c 3c b6 a2 b4 3c 04 ee 94 bc 68 f0 84 bc
       0.009555705 0.022050243 -0.018179901 -0.016227916
000140 58 5c 5b bd 6c 30 a7 bd 05 16 48 3d 9c a2 8a bc
       -0.053554863 -0.081635326 0.048849124 -0.016923241
000150 00 af b9 ba 73 65 31 3c 7a 40 05 bd 56 a8 d7 bc
       -0.0014166534 0.01082741 -0.032532193 -0.026325386
000160 50 ff 52 bc e7 00 2d 3c 22 9a 4f 3c 38 47 00 bc
       -0.012878254 0.010559297 0.0126710255 -0.00782948
000170 7e 51 98 bd 37 34 31 3d 8d 9f 50 3c 61 9c a4 3c
       -0.074374184 0.043262687 0.012733352 0.020094099
000180 40 1d 89 bc de 19 35 3c 4a 73 0c 3d 44 72 96 bc
       -0.01673758 0.0110535305 0.034289636 -0.018365033
000190 56 8f 51 3d 18 95 f3 bb 81 09 3f 3c ee 24 ea bc
       0.051162086 -0.007433545 0.011659981 -0.028582063
0001a0 00 d3 c2 ba ef 94 41 3d 17 99 a9 bd d0 9c 95 bd
       -0.0014863908 0.047261175 -0.08281153 -0.073053
0001b0 4c df 9f bc ad 36 18 bd 8c 14 23 3c a0 09 fd ba
       -0.019515656 -0.037161518 0.009953629 -0.0019305237
0001c0 7c b4 9d 3c 1f 7e 04 bd 98 9c 33 3c 10 e1 73 bd
       0.0192511 -0.03234684 0.010962628 -0.05954081
0001d0 68 42 08 bc 2a e3 29 bd 20 2b dc bb 74 ab 86 3c
       -0.008316614 -0.041476406 -0.006719008 0.016439177
0001e0 bc 40 ff 3b 51 50 0c 3d cc 4c b1 3c 74 5c 72 bd
       0.0077896994 0.034256283 0.021643065 -0.0591702
0001f0 ee e3 83 bd e4 af 2b bd 10 28 37 bd 22 1e 24 3d
       -0.064399585 -0.04191579 -0.04471594 0.0400678

fc2.weight f4 [128, 128]
000000 81 cf 87 3d 98 85 0d bc e4 26 e4 3c 86 8d 1d 3d
       0.06631375 -0.008637808 0.027850576 0.038465045
000010 d1 64 82 3d e2 ca 38 3d 62 a7 9d bd fa a6 f7 bd
       0.063668855 0.04511536 -0.07697941 -0.12092395
000020 16 d5 70 3d 57 44 41 bd 32 5d 78 bd 7e 92 e1 bc
       0.058796965 -0.047184315 -0.060635753 -0.027535673
000030 29 b2 8e 3d 00 97 ac b9 ab 54 3d bd e7 28 08 be
       0.06967575 -0.000329189 -0.046223324 -0.13296853
000040 73 11 29 be 91 17 83 3d 06 16 19 3d 40 32 5a bb
       -0.16510563 0.06400979 0.03737452 -0.0033294111
000050 31 eb fa bd d6 f1 da bc 20 7e 4e bd 9f 16 22 3d
       -0.122518905 -0.026726644 -0.05041325 0.039572354
000060 73 9c f3 3d 11 f8 a4 3c d3 5d b4 bd 6c d6 e6 3c
       0.11895075 0.020137819 -0.08806958 0.028178416
000070 f0 ae eb bd 87 c1 53 bc 47 4d 8f bd 2d 1a 94 bd
       -0.11507976 -0.0129245585 -0.06997161 -0.07231555
000080 62 f5 e5 3b 8c 1a 9e bd cf 3b 81 bd ba bc 84 bd
       0.0070177773 -0.07719907 -0.06310236 -0.06481309
000090 2f 56 80 3d 00 bc 6f b9 20 c7 5c 3c d6 75 2f 3d
       0.06266438 -0.00022862852 0.0134752095 0.042836986
0000a0 07 dd a7 bd 70 ea 1f 3c b0 7d ea bc c8 16 5d bc
       -0.081964545 0.009760484 -0.028624386 -0.013494201
0000b0 f0 08 59 bd eb 84 0f bd b2 ad 50 bd 9d af 36 bd
       -0.05298704 -0.03503887 -0.0509469 -0.04460107
0000c0 80 2a 9d bc 56 52 55 be 5e fe 38 3d 98 67 ea 3c
       -0.019185305 -0.2083219 0.04516446 0.02861385
0000d0 2d 73 37 3b f9 f7 fc 3b 55 c9 36 bd 47 45 87 3d
       0.0027992234 0.0077199903 -0.0446256 0.066050105
0000e0 0c 63 7d bd 64 ac 54 bd f2 70 33 3d c8 87 79 bd
       -0.061862037 -0.051922217 0.043808885 -0.060920507
0000f0 f8 b5 24 bd f4 fe d8 3c 23 cf 80 bd a8 18 d4 bd
       -0.0402126 0.026488759 -0.06289508 -0.10356265
000100 d4 c6 1f 3d 8a 23 2e 3d 7e 30 87 3c ee 39 f5 bc
       0.039007977 0.04251436 0.016502615 -0.02993485
000110 03 61 4b 3a bb d2 0d be 30 b8 4c bc 05 69 f9 bd
       0.00077582913 -0.13849919 -0.012495086 -0.12178234
000120 9f 4c 43 bd b0 08 bd 3c ed e0 e2 bc b8 08 e8 3c
       -0.047680493 0.023075432 -0.027695144 0.02832447
000130 63 04 37 bd e0 f4 45 3d 0a be 11 bd 99 08 7e bd
       -0.044681918 0.048329234 -0.035581626 -0.062019918
000140 e0 0f ee 3b 38 ff 5c bc 79 72 2f bc b6 f5 69 3d
       0.007265076 -0.013488583 -0.010708445 0.057119094
000150 80 d8 2b 3c 7b 7f 24 be 08 60 83 3c 84 16 c5 bc
       0.010488629 -0.16064255 0.016037002 -0.024058588
000160 20 ef 9d bc 02 2c 86 bd d3 2c 9f bd da 0b 67 3d
       -0.019279063 -0.065513626 -0.077722214 0.056407787
000170 00 2c 85 bc 98 81 5e bd 75 c6 9b bd 94 19 b4 3c
       -0.016256332 -0.05432281 -0.07606212 0.021984853
000180 b0 48 0f 3d 8d b2 8f bd 27 65 0b bd 2e 3e 63 3d
       0.03498143 -0.07016478 -0.034032013 0.05547922
000190 1f 39 9c bd d9 72 ad bd d1 8c 04 be 06 34 da bc
       -0.076280825 -0.08469171 -0.12944342 -0.026636135
0001a0 a3 b0 21 bd ae ea 27 bb e5 d6 0b bd 40 4c 24 3b
       -0.039475095 -0.0025622058 -0.034140486 0.0025069863
0001b0 74 22 9c 3c 8f 58 1d bd e6 34 b6 bd ee 82 2a 3d
       0.019059397 -0.038414534 -0.08896808 0.04162877
0001c0 38 cc 14 3e fd d7 a0 3d 44 bd ef ba 90 2c af bc
       0.14531028 0.078536965 -0.0018290658 -0.021383554
0001d0 9e 12 1f 3d 56 c0 75 bd 5c fc 9b bd 8e 45 48 3b
       0.038836114 -0.05999788 -0.07616493 0.0030559036
0001e0 ca 18 f7 bd c9 59 0d 3d c0 36 0f 3d 46 7b 14 3d
       -0.12065275 0.034509454 0.034964323 0.036250375
0001f0 6e 30 20 3d 56 e1 22 3d b9 b0 b1 3d 24 0b da bd
       0.039108686 0.03976568 0.08676285 -0.10646656
000200 12 93 52 3d 34 5e 86 bd 1c b2 71 bd 58 71 e3 3c
       0.05140979 -0.065609366 -0.05900775 0.027764007
000210 82 e3 77 3d 3a 5a 1b 3d 1c b8 cc bc c9 64 9c 3d
       0.060519703 0.037927844 -0.024990134 0.07636411
000220 f0 60 de 3c a6 31 3f 3d a0 85 41 bb 40 f9 b1 3a
       0.027145833 0.046678208 -0.002952911 0.0013578311
000230 63 16 aa bd e6 c2 57 3d 0e 54 7f 3d 30 0e ef bc
       -0.08305051 0.052676104 0.06233602 -0.02918157
000240 dc fb bf 3c da 97 34 3d 54 c2 ac bc 30 0d 95 3c
       0.023435526 0.04409013 -0.021088757 0.018194765
000250 c0 45 8e bd d2 c0 91 bd a4 87 97 bc 38 86 1d bc
       -0.069468975 -0.07116856 -0.018497296 -0.00961452
000260 8c 10 0d 3d 5b 43 85 3d e0 3b 69 3b 54 86 8c bd
       0.03443961 0.06506988 0.0035588667 -0.068615586
000270 27 16 93 3d a0 58 93 bb 1f 0d 16 bd d2 a7 36 bd
       0.071819596 -0.004496649 -0.036633607 -0.04459364
000280 47 5c 31 bd 85 73 12 bd 15 dd 8c 3d b2 08 50 bd
       -0.043300893 -0.0357547 0.068781056 -0.050789542
000290 d9 41 5b bd c4 62 94 bd 47 3a aa 3d 58 16 0f 3d
       -0.053529594 -0.072454005 0.08311897 0.034933418
0002a0 00 2b 26 3c 18 16 11 3c 90 be 22 3c 18 ea 95 bd
       0.010142088 0.008855365 0.009933129 -0.073200405
0002b0 49 19 88 3d d0 20 da 3c 38 69 10 3c 62 93 56 3d
       0.06645448 0.026626974 0.008814149 0.05238665
0002c0 6a 58 31 3d 97 d1 86 bd c0 fc 70 3b 63 b2 40 bd
       0.04329721 -0.06582945 0.0036771744 -0.047045123
0002d0 f0 f8 d3 bb 88 64 3d 3c a6 b0 fc bc 43 d4 9a bd
       -0.0064688846 0.011559613 -0.030845951 -0.07560017
0002e0 6c a7 8c bd 61 fc 44 bd bd a3 8a 3d 20 60 de bb
       -0.06867871 -0.04809225 0.06769512 -0.0067863613
0002f0 65 59 94 3d 69 d3 a3 3d 00 f8 80 ba fc dc fe 3c
       0.07243613 0.07999308 -0.0009839535 0.031111233
000300 d2 bc 84 bd d5 5b 9a 3d c3 ed 8f 3d 5e b3 32 bd
       -0.06481327 0.07537047 0.07027771 -0.04362809
000310 80 4b 17 bc d2 5f 23 bd 8e 4b 71 bd f0 61 6c 3c
       -0.009234309 -0.039886303 -0.058909945 0.014427647
000320 4d d8 a4 3d 70 88 85 bd 38 32 2e bc d5 52 3d bd
       0.080490686 -0.06520164 -0.01063209 -0.046221573
000330 f9 7a 08 bd 57 75 69 bd ce 53 42 3d 00 70 c5 39
       -0.0333204 -0.05699667 0.047443204 0.00037658215
000340 d0 90 80 bb 00 4f ca bb 4c d6 42 bd c3 40 ae 3d
       -0.003923513 -0.0061739683 -0.04756765 0.08508446
000350 d4 0a 48 bd 98 fd d1 3c 9e 5b 6e 3d 00 54 ce b8
       -0.04883845 0.025633618 0.05819284 -9.838492e-05
000360 15 52 1b bd 18 0d 7d bc b9 66 6f bd 8b 0c 97 bd
       -0.037920076 -0.015445016 -0.058447573 -0.07375439
000370 04 c5 cb 3c 1d 9a 68 bd 35 c3 8b 3d ad 3e b4 3d
       0.024874218 -0.0567876 0.06824342 0.08801017
000380 36 78 3c 3d 79 7a a7 3d ac 0b ae bd 58 b6 0b 3d
       0.04601308 0.08177657 -0.0849832 0.034109443
000390 94 d0 8b bc 73 3a 02 bd 00 f1 25 ba 55 dc 8d 3d
       -0.017067231 -0.031794023 -0.0006330162 0.069267906
0003a0 92 c1 05 3d d2 d5 6f 3d ba 42 63 3d 30 99 6e bd
       0.032655306 0.058553524 0.055483557 -0.05825156
0003b0 40 d8 a4 3a 07 90 84 bd f6 c8 38 3d 40 41 f4 3b
       0.0012576655 -0.064727835 0.045113526 0.0074540675
0003c0 38 56 7c 3c ec a4 e1 3c a1 ea 2e bd 7c 5a 85 bd
       0.0154014155 0.027544461 -0.04270423 -0.06511399
0003d0 36 d6 88 bd 37 9f b3 bd 2e 1d 34 3d 92 4d 17 3d
       -0.066814825 -0.08770602 0.04397314 0.03693921
0003e0 8e 1a 73 3d 3d 0c 81 3d dd 6f 9d bd 54 45 cc bc
       0.059351496 0.063011624 -0.07687352 -0.024935402
0003f0 d1 90 56 bd 30 f8 e9 3b 96 11 98 bd 0e 7b 2b bd
       -0.0523842 0.007140182 -0.07425229 -0.0418654

fc2.bias f4 [128]
000000 66 4e 62 3d 64 8a aa bc 79 b8 49 bd a4 8f aa bd
       0.055250548 -0.020817943 -0.049248192 -0.083281785
000010 d1 11 80 bc 48 16 73 bd 64 3b 94 bd 68 90 a5 3d
       -0.015633496 -0.05934742 -0.0723789 0.08084184
000020 ba 10 59 3c 47 6d 44 bd 78 93 3f bc 7f 64 66 3c
       0.013248617 -0.047955777 -0.011692874 0.014062046
000030 52 41 2a 3c 80 6d de bc c4 a6 9c 3c 60 9e 6a bc
       0.01039155 -0.027151823 0.019122489 -0.014319986
000040 79 64 0b bd 0d 85 ab 3d ff 55 a6 bd a2 ee b3 bd
       -0.034031365 0.08374987 -0.08121871 -0.0878575
000050 4e 89 8e 3d 01 09 a3 bd 20 79 07 bc e6 76 60 3c
       0.069597825 -0.07960702 -0.008268625 0.013700223
000060 98 1a 0f bd de 1d 97 3d 43 2a 8f 3d 3e 28 73 3c
       -0.03493747 0.073787436 0.06990483 0.014841137
000070 3e 71 68 3d 18 43 81 3d c3 3c 16 bd 73 a9 86 bd
       0.05674862 0.06311625 -0.03667904 -0.065752886
000080 6e ae 53 bd b3 6f 3f bc 92 5e 7d 3d 8e 0c e6 bc
       -0.05168002 -0.011684346 0.061857767 -0.028082158
000090 dd 51 30 bd 34 b2 80 bd 34 de 18 bc 13 64 93 3d
       -0.04304682 -0.062839895 -0.009330321 0.07196822
0000a0 04 87 8b 3d 10 34 96 3a 51 b1 89 bd ca b1 b7 3d
       0.068128616 0.0011459608 -0.067232735 0.089694574
0000b0 d8 10 73 bd 0a 12 a6 bd 56 ed 87 bd df 38 fa bb
       -0.059342235 -0.081089094 -0.06637065 -0.007636174
0000c0 3b ff a0 bd 9c 50 84 bd cd 1f 5a 3d c4 f7 8e bd
       -0.07861181 -0.064606875 0.053252984 -0.06980851
0000d0 78 81 2e bc 50 29 b7 bc 24 7a 88 bc db d0 0d 3d
       -0.010650985 -0.022358567 -0.016659804 0.03462301
0000e0 84 e5 25 bd c4 b0 43 3d d8 5c 2d bc a9 e1 23 bd
       -0.040502086 0.047776 -0.010581218 -0.04001013
0000f0 78 64 6d bc 11 6e a8 bd 79 4a 84 3c 19 2f 3f 3d
       -0.014489286 -0.082241185 0.016148793 0.046675775
000100 2a 5b a7 bd 62 94 97 3d a0 d9 57 bc 17 d9 50 3d
       -0.08171685 0.07401349 -0.013174444 0.050988283
000110 c6 34 a3 bd de 6b 8f 3d 56 8c 92 bb 9b ce 93 3d
       -0.0796905 0.07002996 -0.0044722958 0.07217141
000120 7b 44 36 bc 6e cd 56 bd b0 72 08 bd 9c 3d c8 3d
       -0.011124725 -0.052442007 -0.0333125 0.09777376
000130 08 42 63 3c cb 37 16 bd 33 4e 77 bc 60 de 0d bb
       0.013870724 -0.036674302 -0.015094328 -0.0021647438
000140 80 94 90 3c 4a 0e ae bd 90 d0 d1 bc 13 7d 8a bd
       0.017648935 -0.08498819 -0.025612146 -0.06762137
000150 b0 da e4 bb f7 d4 62 bb f1 a9 86 bd 8a f7 db 3c
       -0.0069840774 -0.00346118 -0.065753825 0.026851434
000160 5b fb 26 bc d6 99 ca b9 20 60 00 bc a8 5f 1c bd
       -0.010191764 -0.0003864306 -0.007835418 -0.038177162
000170 d0 a3 a6 bc 69 52 9a bd 5c 6b 7f 3d 76 a4 8c 3d
       -0.020341784 -0.0753525 0.062358245 0.06867306
000180 17 27 39 3d a2 b5 0d 3c e8 40 cb bc d7 ae be bc
       0.045203295 0.008649262 -0.024811223 -0.02327673
000190 93 d5 fb 3a 2f 76 80 3d dd e0 1e bc 87 34 d7 bc
       0.001921343 0.06272542 -0.009697166 -0.026270164
0001a0 06 eb 9a bd 53 98 87 3d 18 8a fb bc 28 43 b4 bd
       -0.075643584 0.066208504 -0.030705497 -0.088018715
0001b0 59 40 6f 3d d3 4a 5c 3d 57 cb 22 3b 2a 27 ad bd
       0.058410976 0.053782295 0.0024840438 -0.084547356
0001c0 21 68 68 bd 84 f9 87 3d 9d 5a 69 bd 7f ab 71 3d
       -0.05673993 0.06639388 -0.05697118 0.059001442
0001d0 c1 a1 30 3d 40 80 27 3d 0d e4 f1 bb 0e e6 84 bd
       0.04312301 0.040893793 -0.007381922 -0.06489192
0001e0 e6 42 d9 bc 16 93 b6 3d bd af a6 bd 2b a3 af 3d
       -0.026521157 0.08914773 -0.08138988 0.08576044
0001f0 0e 1b 23 3b a1 e4 11 3c 4b b8 a3 3d b0 13 b2 3b
       0.0024887952 0.008904607 0.079941355 0.005434476

fc3.weight f4 [2, 128]
000000 89 d8 66 bd ee e5 45 3d 68 b4 43 bc 90 40 b7 bb
       -0.056358848 0.04831498 -0.011944868 -0.0055924132
000010 03 0a 6e bc d2 49 e9 bc ad c0 76 bd 7c 58 de bd
       -0.014528754 -0.028477583 -0.060242344 -0.10856721
000020 f4 fe d5 bc cc e4 10 3d 58 46 a1 3c 87 d7 10 3d
       -0.026122548 0.035374448 0.019686863 0.035361793
000030 98 95 01 3d 6c e4 11 3d 06 5b 87 bc 67 4e 4f 3d
       0.031636804 0.03561823 -0.016522896 0.05061188
000040 2d 15 9b 3d 4f 68 19 be 91 2f 81 bd b0 82 81 3c
       0.07572398 -0.14981197 -0.06307901 0.015809387
000050 89 80 b3 bc 25 75 b0 bd 3b 0d 4f bd 04 13 cc 3d
       -0.021911876 -0.086160935 -0.050549727 0.099645644
000060 ef 1b 30 bd 04 a7 ca bd 1f 36 84 bd 26 fa ce bc
       -0.04299539 -0.09895137 -0.06455635 -0.025265764
000070 cf a4 22 be d1 64 11 3d c6 77 2e 3d 89 8d 8e 3d
       -0.15883182 0.035496537 0.042594694 0.069605894
000080 b4 12 97 bc da 8d 3b 3c 2b 54 1a bd a8 6a 87 3c
       -0.018441536 0.011447394 -0.037677925 0.01653035
000090 00 43 89 ba e6 a0 ac bd 79 e2 2a 3d e2 9a af 3d
       -0.0010472238 -0.084291264 0.041719887 0.085744634
0000a0 31 98 1b bc 39 21 c6 3d f4 14 c6 3c 7d 88 5f be
       -0.0094967345 0.096743055 0.024179913 -0.2182941
0000b0 46 4f 16 3d 88 87 a1 bd 64 2c b4 bc b4 97 88 3d
       0.036696695 -0.07887179 -0.021993823 0.0666956
0000c0 e5 28 60 bd c0 15 7f bd 67 6b 9b bd 30 31 f1 3b
       -0.0547265 -0.0622766 -0.07588845 0.0073606
0000d0 86 45 21 3d 14 3b be 3c e8 1e 0d 3d 78 5b a3 3d
       0.039372943 0.02322153 0.034453303 0.07976431
0000e0 c8 51 34 3c 8a e6 e5 3d 90 9c d7 3b f0 66 dd bc
       0.011005826 0.112256125 0.006579943 -0.027026623
0000f0 f3 d9 3a 3d 60 f7 98 bd 55 22 41 3d 2e 29 99 3c
       0.04561801 -0.07469058 0.047151882 0.018696394
000100 f4 54 8c bd 36 5e 8e bd 34 78 9c bc 4a e7 62 3c
       -0.06852141 -0.06951563 -0.019100286 0.013849089
000110 c5 07 a3 3d b8 77 eb bd ee 9f e9 ba 9d be 3f 3c
       0.07960466 -0.11497444 -0.0017824152 0.011703161
000120 b7 4c 3a bd 58 99 ee bc 2d 7d 0c bd aa d5 d9 bd
       -0.045483317 -0.029125854 -0.034299064 -0.10636456
000130 3b e0 ee 3c 96 92 a5 bd 80 a3 05 3d 96 b2 46 3d
       0.029159656 -0.080846 0.03262663 0.048510157
000140 0d f2 57 ba 49 1c a8 3d 30 c6 bf bb c0 91 d6 3b
       -0.00082376675 0.0820852 -0.005852483 0.0065481365
000150 88 85 94 bc 2a 23 bd 3c fb 60 a1 3d 2a 09 f2 bd
       -0.018130079 0.023088057 0.07879826 -0.11818154
000160 dc 00 ee 3d fe ae d5 3c 64 f8 91 3c 24 bc a2 bd
       0.11621258 0.02608442 0.017818637 -0.07946041
000170 00 ae 6a 3a 73 49 a9 3d c2 30 f8 bd f5 70 b3 3d
       0.00089523196 0.082659625 -0.12118675 0.08761779
000180 a6 77 c8 3d 8a d8 a6 3d 48 62 64 3c 55 5b bb 3c
       0.09788446 0.0814677 0.013939448 0.022870699
000190 29 c5 55 3d 48 e5 2b bd 79 68 83 bd 3a 4b d1 3d
       0.05218998 -0.041966707 -0.06416411 0.102194265
0001a0 d8 15 21 bc 96 85 ac bd 48 af e6 bc 38 d3 fd 3c
       -0.009831868 -0.08423917 -0.028159752 0.030984506
0001b0 93 f0 8e 3b f0 28 36 bd 61 dd 25 3d 70 99 09 bc
       0.004362175 -0.044472635 0.040494327 -0.008398399
0001c0 92 81 a2 bd 2d fc 95 bd b4 d9 97 bd 56 ee 8e bc
       -0.0793487 -0.07323489 -0.074145705 -0.017447632
0001d0 c0 bd e2 bd e8 0c 08 bd 8d 06 89 3d fc 47 50 bd
       -0.11071348 -0.033215433 0.066907026 -0.0508499
0001e0 ce 70 f8 bc 91 3f 6b 3d 39 2f b2 3d ab be 09 3d
       -0.030327227 0.05743367 0.08700413 0.0336291
0001f0 42 d6 dd 3d ea f2 19 3d c6 9c ae 3d 2f 89 42 3c
       0.10831882 0.037585177 0.08525996 0.011873527
000200 38 f6 0c 3d fa fd 31 3d 00 05 82 b9 c0 1e 82 3b
       0.0344145 0.0434551 -0.00024799258 0.003970951
000210 df 71 ce bc 6e 12 b4 bd 00 39 4d bb 2c 24 20 3c
       -0.025200782 -0.08792578 -0.0031314492 0.009774249
000220 0d 12 bd bd da 5e 7c 3d da df 0e 3d 5e 4a 96 bd
       -0.092319585 0.061613895 0.03488145 -0.07338403
000230 cd 1d 11 3d ac 6d 06 bd 55 21 e5 bd 35 12 8e 3d
       0.03542881 -0.032819435 -0.11187998 0.069370665
000240 52 48 12 bd ce 95 9b 3d 1c 78 c4 3c 0b 2b 89 bd
       -0.0357135 0.07596932 0.023983054 -0.06697663
000250 2d 9c a1 3d a1 91 86 3d 72 f6 58 3d e0 65 e3 3c
       0.07891116 0.06570745 0.052969404 0.027758539
000260 b0 6d 8a bb 03 37 e2 3c 68 51 ab 3d 24 7f 06 bd
       -0.0042245016 0.027614122 0.083651364 -0.032836094
000270 fd 1f a3 3d 64 df f0 bc c5 c9 91 bd eb de 92 3d
       0.07965086 -0.029403396 -0.071185626 0.071714245
000280 04 96 86 bc 96 a6 32 3c 50 45 9b 3d 19 25 79 bd
       -0.016428955 0.010903975 0.0758158 -0.060826395
000290 52 bd 78 3d a6 55 26 3d ba d1 6c 3d ad 16 32 3c
       0.060727425 0.040609024 0.0578172 0.010869664
0002a0 59 1b a0 bd 8f 56 f1 bd 8f e4 a7 3d f7 a6 e1 3d
       -0.07817716 -0.11784088 0.08197891 0.11018174
0002b0 57 50 a1 bd b9 09 ac 3d b1 14 97 bd 85 63 04 bd
       -0.07876652 0.08400292 -0.073769934 -0.03232147
0002c0 f8 c3 fe 3c e0 6c 31 bb 64 d0 a4 3d 91 59 25 bd
       0.031099305 -0.0027072951 0.0804756 -0.04036862
0002d0 c0 ed 74 bb 50 3b 6a bc 7f 40 16 bd e7 5a 03 bd
       -0.0037373155 -0.014296368 -0.036682602 -0.032069113
0002e0 28 df 5e bc 8d a4 6f bd 13 c1 a2 bd b9 aa ab 3d
       -0.013603009 -0.058506537 -0.07946982 0.08382172
0002f0 71 60 3c bd cc ef a1 bd c5 03 d3 bd 55 c2 2f bd
       -0.04599041 -0.07907066 -0.10303453 -0.04290994
000300 54 e4 a7 bc 2c 21 c1 3d 1a b7 3c 3d de dd bc bc
       -0.020494618 0.09430155 0.046073057 -0.023055013
000310 a2 46 26 bd b0 a2 cf 3d b8 ab e4 3b 55 54 dd bd
       -0.040594704 0.10138452 0.0069784783 -0.10807101
000320 07 76 56 3d c6 6c 2a 3d 14 17 a0 bd 30 4f be 3d
       0.052358653 0.04160764 -0.07816902 0.092924476
000330 a5 73 ca 3b a2 b7 71 3d 16 49 2b 3a 58 fa 73 bc
       0.0061783367 0.059013017 0.0006534023 -0.01489123
000340 1d 26 96 3d 40 b4 e2 3c 83 33 99 bd 88 1d 92 bc
       0.07331488 0.02767384 -0.07480528 -0.017836347
000350 90 4a 18 bd e2 d3 b8 bd de f1 25 3d 87 8c 9a 3d
       -0.037180483 -0.090247884 0.040513866 0.07546335
000360 46 fb 0a be a6 11 81 bd d0 4f c6 3c d4 0a 9c 3c
       -0.13572416 -0.06302194 0.02420798 0.019048132
000370 70 ee fa 3b d0 18 a5 bc fb 07 7f 3d bf 95 8f 3b
       0.0076578185 -0.020153433 0.06226347 0.004381865
000380 00 9e 01 bd db 56 99 bd fc f2 5b 3d 7f 50 61 bd
       -0.03164482 -0.074872695 0.053698525 -0.055008408
000390 2c 42 78 bd a0 06 b5 3d b3 18 73 bd a3 98 92 bd
       -0.06060998 0.08839154 -0.059349727 -0.071580194
0003a0 c0 0f 70 3b 0e ba 00 3e 9c 64 e7 bc fd 64 82 3d
       0.0036630481 0.12570974 -0.028246216 0.06366918
0003b0 16 79 bb bd 40 9a 5c 3d 63 a3 b0 bd f9 27 89 3d
       -0.09153955 0.05385804 -0.086249135 0.06697077
0003c0 bc eb 9f bc 2c 95 c5 3d 24 1e a9 bc 35 ee 92 bd
       -0.019521587 0.09647593 -0.020644255 -0.07174341
0003d0 68 ac fb 3c 44 41 35 bb bd 7a 8c 3d fe 57 2f 3d
       0.030721858 -0.002765731 0.06859348 0.042808525
0003e0 80 01 a6 3b d5 1e da bd 80 60 1e 3b c9 99 84 bd
       0.005066097 -0.10650412 0.0024166405 -0.06474645
0003f0 04 65 8b 3a 07 8e b0 bb 86 32 b1 bd 31 92 90 3c
       0.0010634963 -0.0053880247 -0.08652215 0.017647834

fc3.bias f4 [2]
000000 83 b6 70 3d 64 e9 ad 3c
       0.058767807 0.021229453
